backend/model/best_model.pt (torch, 623778 bytes, 31 tensors)

blocks.0.0.weight f4 [352, 39]
00000000: b17d 21be 5aa2 b83d 1e17 843d c6b9 9cbe
00000010: ab72 0ebe 8ff1 f0bd 2517 a43e 743d 60bd
00000020: 9afd 733d c871 a5bd e102 9b3d 8837 d0bd
00000030: a8eb 2fbd e0ef d6bd 823d 723d 0b61 363d
00000040: faf6 a83d 9be3 d7bb 8fff 613d 5bb7 ea3a
00000050: ddf1 5e3d 5de3 443c c533 84bd 4b9b 063c
00000060: 0064 2d3e 8987 b7bd 3c87 9b3c ebfa 553e
00000070: eb38 4abe bb50 e9bc ac74 01be f8ae 453d
00000080: c68d aabd 3640 4d3e 9e52 953a 9b20 373d
00000090: f7af b4bb 46d1 3fbd 4c2e ddbd 51c6 30be
000000a0: 39c8 dc3c e336 a43e 0334 2abe 0df8 673e
000000b0: 29ee ea3d 5ef8 ab3d db9c 523d 1a35 043d
000000c0: e40e 05be 258f 91bd 666e c43d 820b 4abe
000000d0: b431 10bd a571 aabd c909 44bd fcd3 18be
000000e0: d1bc 76bd 9b12 983d fc19 12bc c932 ca3d
000000f0: 33cd bb3d e705 f43d 8a97 cfbc bbce 573d
00000100: 0cfc fb3d 4f2d 3cbe a831 6abd 108b 1bbd
00000110: affc 89be 4c75 903d f7d8 2fbe 54c4 4e3e
00000120: 29b4 2fbd 845e 4b3d 6dd1 5f3a aea1 0ebd
00000130: 3c42 4f3d 10be 053e f759 42bd 88a8 6a3d
00000140: 56b2 7c3e 9aba 093e 53e5 b0be 1e6c bc3c
00000150: c04e 44bd 760c a6bd f484 253e 368b 2b3e
00000160: 979e bbbd cf92 5b3e 4b85 36be dad5 6dbc
00000170: 5789 b03d 30ba 063e 7342 863d 9aaa dfbb
00000180: 688f 9d3c 8786 6d3c 472b 32bd 7593 52bd
00000190: 0ed5 9cbd c8bc 53bd 184b 113d 1343 11bd
000001a0: 9422 8f3d 8527 8e3d 834a b8bd 812c 0c3e
000001b0: 0a40 7fbd afe0 19bd ad97 51be bea1 9cbd
000001c0: 76bd d63d be91 8dbd af04 d63d 36d7 22be
000001d0: b0e2 8cbd 5b0d 793a 715a 3ebe 034c 76be
000001e0: 9c44 18bd 9353 91bd 5857 373c 2d21 97bd
000001f0: 0fcd 9e3d fe6c a23d c685 5b3e 227f 35be
00000200: 81bc dfbd 53ae b6bb 261f b3bd 6117 ce3c
00000210: def6 1fbe adf1 92bd 15a2 ce3d 337a 533c
00000220: 1f96 26bb b054 2c3c 80a3 203d 1911 193e
00000230: c7a0 173e e67d a33d 3d2a 113e c134 22be
00000240: eb22 063d 7cc6 0f3d 1907 b0bd 8844 a9bd
00000250: 3a41 1abe 6c40 eebc 176c 43be 279c 5a3e
00000260: 9901 8b3d 1eb9 b23d 89c0 093e 58cd 0d3c
00000270: decf ed3e c84d 053e a88f 2d3e f28a 04bd
00000280: 3930 a3bc 00a3 6b3e ad3f a1bb 0361 c2bd
00000290: 39d4 bbbb 7143 423e febf e23d 0562 47bd
000002a0: 8338 543e 83d7 bbbd 4774 16bd 8fe1 94bd
000002b0: a50c 073d bc3d 0ebe 2e0c babd 1108 21bd
000002c0: 6a11 d2bc 7711 14bd 8268 ae3d aa56 c43d
000002d0: 7d3c c8bc 7cb3 bd3d 4761 f43d a5c7 533d
000002e0: 6888 b8bd f6e7 2abc b3ac 5b3e 95af 953b
000002f0: b29c 333e e9f8 e13d e471 273d abfb 2dbe
00000300: 337f b4bd 8816 663d ed7c c8bc 99af fb3d
00000310: 00ad ccbe 08d4 be3d 87d3 d13d bb5a dcbd
00000320: 6c33 61be d5ee 733e 65cc df3c 797b b73d
00000330: ccee 03be d68b b23d c9ad 96be ad2d 803d
00000340: c853 04bd 0a6b cfbd 530b aa3d 0549 de3d
00000350: 2358 ebbd 1c48 26bd 9205 0dbe 3700 233d
00000360: 9663 4b3c 9d00 debc 6735 4b3d 4d6d dbbd
00000370: 0dae 05be 9d8a 343d 7fd5 f2bd 9fca 0fbd
00000380: 1291 60bc 7cd8 8ebc 8228 55bc dd37 c6bd
00000390: 3076 7c3d 4de0 683c cb9e 5a3d ef2c 29bd
000003a0: 593b b2bb 58b6 233d 10c8 aa3d 7405 0cbe
000003b0: 8b36 e33d c7ed 28be 6216 8dbe e784 5fbd
000003c0: 28f6 0bbe 28ff 8cbd 05d6 62be 486a 3d3e
000003d0: dec4 a1bd 41d6 e13d 1692 9c3d cacf ae3d
000003e0: 4902 0bbc 5dd2 e13d 856b d1bd 726f e53d
000003f0: d60c 24be a914 54bc d746 aebc 1855 b43c
-0.15770604 0.09015341 0.06449722 -0.30610484 -0.1391093 -0.11764824 0.32048908 -0.054746106
0.059568025 -0.08078343 0.075689085 -0.10166842 -0.04294935 -0.10494971 0.05914069 0.04452614
0.08250232 -0.006588412 0.05517536 0.0017907427 0.054429878 0.012017098 -0.06455187 0.008215736
0.16932678 -0.08961398 0.018985383 0.20896499 -0.19748275 -0.028480878 -0.12642163 0.048262566
-0.083278224 0.20044026 0.001139242 0.04470883 -0.0055141407 -0.046830438 -0.10799846 -0.17263152
0.026950942 0.32073125 -0.16621403 0.22653218 0.11471207 0.08396982 0.05141912 0.032277204
-0.12993962 -0.07107381 0.09591369 -0.19730952 -0.03520365 -0.08322457 -0.047860894 -0.14924616
-0.060238663 0.07425424 -0.008917328 0.09872968 0.09169998 0.11915188 -0.025340814 0.052687388
0.123039335 -0.18376659 -0.057176262 -0.037974417 -0.26950595 0.070536226 -0.1717261 0.2019208
-0.042896423 0.049650684 0.0008537982 -0.03482216 0.050600275 0.13060784 -0.04744908 0.05728963
0.24677405 0.13450089 -0.3454996 0.023000773 -0.047926664 -0.081078455 0.16163999 0.16752324
-0.09161108 0.21442722 -0.17824285 -0.014516318 0.086199455 0.13156962 0.06555643 -0.006825757
0.01923342 0.014497406 -0.043498304 -0.051410157 -0.076578245 -0.051693708 0.035472006 -0.035464358
0.06989017 0.069411315 -0.08998587 0.13688852 -0.06231693 -0.03756779 -0.20468016 -0.076480374
0.104853556 -0.06912564 0.10450112 -0.15902409 -0.06879175 0.00095005863 -0.18589188 -0.24052434
-0.037174806 -0.07096019 0.011190258 -0.07379375 0.077539556 0.07930945 0.2143775 -0.17724279
-0.10924626 -0.0055749803 -0.087461755 0.025157632 -0.15621516 -0.07175002 0.100895084 0.0129075525
-0.002541907 0.010518238 0.039218426 0.14947928 0.14807425 0.079829976 0.14176269 -0.15840437
0.032748144 0.0351014 -0.08595104 -0.082650244 -0.15063944 -0.029083453 -0.19084202 0.2134863
0.06787414 0.087267146 0.13452353 0.008654915 0.46447653 0.13017952 0.16949332 -0.03235907
-0.019920455 0.23011398 -0.004920921 -0.0949116 -0.005732086 0.1897104 0.11071776 -0.048677463
0.20724683 -0.09171965 -0.036731984 -0.072695844 0.032971043 -0.13890737 -0.09084354 -0.039314333
-0.02564307 -0.03614947 0.08516027 0.09586842 -0.024442906 0.092627496 0.11932617 0.051704068
-0.090103924 -0.01043128 0.21452598 0.00456805 0.17540243 0.11033804 0.0408801 -0.16990535
-0.08813324 0.05617383 -0.024473632 0.12289352 -0.3997574 0.093177855 0.10245424 -0.10759493
-0.21992272 0.23821576 0.027319143 0.089590974 -0.12884063 0.08718078 -0.29429463 0.06258712
-0.032306463 -0.10127838 0.08302941 0.10853771 -0.1149142 -0.040596113 -0.13771656 0.039795127
0.01241388 -0.027099902 0.049611475 -0.10714207 -0.13054676 0.044077504 -0.118571274 -0.035105344
-0.013706462 -0.017437212 -0.013010146 -0.09678624 0.06163615 0.014213634 0.053374093 -0.041302618
-0.0054392037 0.03996882 0.0833894 -0.13673955 0.110943876 -0.16496955 -0.2755614 -0.054570105
-0.1366812 -0.06884605 -0.22151954 0.18497574 -0.078988776 0.11027194 0.07645051 0.08535726
-0.008484432 0.11026452 -0.10225586 0.11202897 -0.16020522 -0.012944379 -0.021274013 0.022013232

blocks.0.0.bias f4 [352]
00000000: 3660 1ebe e1e5 dabd 3a7f 923d 9687 bbbd
00000010: dbe4 51bc 067d 273e 73b5 233d 4c04 ccbc
00000020: b2b8 3a3d 4792 ddbd 14dc 23bb 054b 07be
00000030: dd18 e6bd 3a27 153e 796d 1fbd dbe5 943d
00000040: ce95 f3bd c10c e53d e4f2 b83b 414c 063e
00000050: 6dce 2ebd a53c 923c 3f58 143d 7204 fdbd
00000060: 2315 39bd 948c e2bc cfff 13be 5477 4bbd
00000070: 3a32 f6bd f8f0 1cbe 52b3 033e f93d 133e
00000080: 7171 97bd aae8 88bd 1dbf c3bd 2cb8 07bd
00000090: 45d0 f63d 8020 ff3d 436b 50bd 80db 33bc
000000a0: 7d42 10bc 03be cfbd 159f 8e3d 402a 1abe
000000b0: 994d dc3d c3f1 b1bc 08f9 8ebb fe1f 21be
000000c0: d720 97bc c62c 1fbd 788e 013d 8d4b 943d
000000d0: 982e cc3d a606 03be 1290 293d f82d 13be
000000e0: c371 613d 7e42 0fbe 2310 543c e265 98bd
000000f0: 9cf5 3cbd fab6 87bd 820f 41bd 7f8c 053e
00000100: da7f cabd 997b 163e 2d7b bc3b 6764 233e
00000110: f0c9 d4bd d424 92bd 7a2b 01bd a5d6 2e3d
00000120: 57d9 46bd 9c2b 2fbd 907c 10be 6f39 913b
00000130: 7869 153e bd37 c9bd 77c9 b53c 0b4c fdbd
00000140: b7bd 22be c24e fe3d e5cf 093e a332 92bd
00000150: bdb3 f9bd 49e5 533d 1980 a23d 3203 a53d
00000160: 3ee7 033e bc10 eabc ae70 c7bd ef1c ba3c
00000170: 6590 a9bb 6f92 393c 4f99 ff3d c6e2 983d
00000180: 8c53 c7bd 764a 4cbd e198 3bbd ccd1 05be
00000190: 3a06 a1bd af46 db3d feff 6cbd 182c f23d
000001a0: 308e 1d3e 80ef 11be 7061 9d3d f670 953d
000001b0: fbe9 9b3d 54fa 9fbb bafa 073e e3a4 cf3b
000001c0: d5ec e1bc 3ec4 f73d d787 513c d07e 92bd
000001d0: ce45 f0ba 1dfb db3d ada6 e8bd 46f0 72bc
000001e0: ae57 113d 32c1 a5bd af24 103d 527c b7bd
000001f0: a49a 973d 0544 1e3e 6486 423d da98 033e
00000200: 05e8 10bd 0c62 e73c 5539 4a3d c379 983d
00000210: dc30 01be 528c f23d 4427 a23d 9671 bebb
00000220: 24c8 963d 5fec 733d 96ee bdbd b23b 033d
00000230: 083c f6bd bb32 1cbe b012 f63c 35b7 31bd
00000240: 4512 6a3d 140b b23d c505 173e e137 bfbd
00000250: e47a 7b3d cfe1 5dbb 24dd d7bb c476 b13c
00000260: 7810 7cbd 81df 8a3c 9e47 d63d 8431 b63d
00000270: 2ed4 3fbd af7a e2bc b727 d7bd ad2e b3bd
00000280: 1611 6cbd 4e11 993d d625 42bd 113d f93c
00000290: 272c 3abd 6147 913d 93f8 d13d 2646 f63c
000002a0: ae86 01be 285c ab3d 658f 893c 9ea5 663d
000002b0: 2374 fcbd a48e 743d 74a9 c33d a5a8 dc3d
000002c0: 7927 913c c478 c4bd dfe2 873d dd0b 1c3e
000002d0: 7e98 6a3d 0969 c83d 7581 b8bd 3c8e 14be
000002e0: 647f a33c 1a3b ce3d da44 253e 9074 d33c
000002f0: 80f6 03be d5a8 aabd c183 e6bc 283f b1bd
00000300: 51b2 1bbe 0520 39bb cf6a bc3c b163 f8bd
00000310: 719d 0a3e 8171 1cbe 837a 68bd 10d8 533d
00000320: 4d8f d43c 75f6 903c 9489 e3bb de9f dc3c
00000330: 4537 743d 5ee2 b8bb 0645 69bd 7323 d03d
00000340: 20c4 02be 4d4d 75bd 6807 efbb 8747 27be
00000350: 99d0 e3bd 8618 fb3d 5afa 863d 8da3 223e
00000360: b4cd 993c 7408 23be 265f 253d d112 a8bd
00000370: 1f6e e23d 2f55 f3bd 5633 323c 7554 003e
00000380: 7599 dc3a f7d0 1bbe e3d1 d1bd 8389 483d
00000390: 89eb 153e 5085 debd d014 dcbd 88a5 9cb9
000003a0: 5132 02be 02b3 ac3d c7a0 e5bd bcd9 0cbe
000003b0: 4fcd bebd 8783 d3bd fb3e 05be 51c4 ddbd
000003c0: 7b6e c9bc 6b58 e73c 68c0 c13d 6ecb c7bb
000003d0: af8b 3e3c e37e 033e 31b7 ab3d 0bf8 0c3e
000003e0: 7ec0 923d 258d 59bd 2d6f 0b3e 6302 e03c
000003f0: ab41 1dbe cb6b bebd a5c8 1bbd d409 07be
-0.15466389 -0.10688377 0.07153173 -0.0915672 -0.012810911 0.16356286 0.039967965 -0.024904393
0.045586295 -0.10818916 -0.0025003003 -0.13212211 -0.11235211 0.14565745 -0.03892276 0.07270404
-0.11893807 0.11184073 0.005644189 0.13115026 -0.04267733 0.017851183 0.03621697 -0.123543635
-0.045186173 -0.027654923 -0.14453052 -0.049674347 -0.12021299 -0.15326297 0.12861374 0.1437911
-0.07394684 -0.06685002 -0.09557936 -0.033134624 0.12051443 0.12457371 -0.050883543 -0.010977626
-0.008804915 -0.10143664 0.06963936 -0.1505518 0.10756988 -0.021721726 -0.004363183 -0.1573486
-0.018448276 -0.03886106 0.03163001 0.07240973 0.099698246 -0.12795505 0.04139716 -0.14373004
0.055040132 -0.13990209 0.0129433 -0.074413076 -0.04613267 -0.06626697 -0.04713393 0.13041876
-0.09887667 0.14695586 0.0057519884 0.15956269 -0.10390079 -0.07135931 -0.031535603 0.04268517
-0.048547115 -0.0427662 -0.14110017 0.0044318954 0.14591014 -0.09825084 0.022190792 -0.1236802
-0.15892683 0.124173656 0.13458212 -0.071385644 -0.121924855 0.051732335 0.07934589 0.0805725
0.1288118 -0.028572433 -0.09738289 0.022718875 -0.005174684 0.011326416 0.12480413 0.074651286
-0.09732732 -0.0498757 -0.045800094 -0.13068312 -0.07862516 0.10706841 -0.05786132 0.118248165
0.15386271 -0.14251518 0.076846 0.07296936 0.076129876 -0.0048821364 0.13279238 0.0063367947
-0.02757875 0.12097977 0.012788734 -0.07153094 -0.001833135 0.107412554 -0.11359916 -0.014827793
0.03548401 -0.0809349 0.035191234 -0.08959259 0.07402542 0.15455635 0.047491446 0.12851277
-0.03537752 0.028244995 0.049371082 0.07445099 -0.12616295 0.1184317 0.079176456 -0.0058118803
0.073623925 0.059551593 -0.09274022 0.03203935 -0.12023169 -0.15253727 0.030038208 -0.04338761
0.05714633 0.08693519 0.14748295 -0.0933683 0.061396495 -0.0033856516 -0.0065876413 0.021663077
-0.061539143 0.016952278 0.10462879 0.08896163 -0.04683321 -0.02764639 -0.10505622 -0.08749137
-0.057633482 0.07474004 -0.047399364 0.030424627 -0.045452263 0.070936926 0.1025249 0.030062746
-0.12649032 0.08367187 0.016792009 0.05631029 -0.12326839 0.059706345 0.09553805 0.10774354
0.017719017 -0.09593347 0.06635069 0.152389 0.057274334 0.09785659 -0.09009067 -0.14507383
0.019958206 0.100698665 0.16139546 0.025812417 -0.12887001 -0.083329834 -0.028138997 -0.08654624
-0.15204741 -0.0028247845 0.023000149 -0.121283896 0.13536622 -0.15277673 -0.05675746 0.051719725
0.025947237 0.017695645 -0.006943891 0.0269317 0.05962302 -0.0056422194 -0.05695059 0.101630114
-0.12770128 -0.059888173 -0.007294584 -0.1633588 -0.11123771 0.12260537 0.065907195 0.15882702
0.018774845 -0.15921193 0.040373944 -0.08206714 0.1105616 -0.11881482 0.010876497 0.12532218
0.0016830402 -0.15216433 -0.10245111 0.048959266 0.14640631 -0.10865271 -0.10746157 -0.0002987797
-0.12714507 0.084325805 -0.112123065 -0.13754934 -0.09316503 -0.10327821 -0.13012306 -0.1082846
-0.024588814 0.028240403 0.09460527 -0.0060972488 0.011629983 0.12841372 0.0838455 0.13766496
0.07165621 -0.05311312 0.13616629 0.027344888 -0.15357082 -0.092979036 -0.038033146 -0.13187343

blocks.0.1.weight f4 [352]
00000000: 9b2e 803f 394b 7d3f f30f 883f d7af 8f3f
00000010: 0136 8c3f b550 853f 83de 843f c509 823f
00000020: 50b9 8b3f 6419 873f 6484 8f3f c720 7a3f
00000030: 692b 8a3f d173 843f 6fd2 843f 776e 8a3f
00000040: 68f0 7b3f 6baf 8f3f 5e7f 793f 3fd3 8d3f
00000050: cf36 7b3f f54a 793f 2430 843f 6539 813f
00000060: 4fd7 873f 1efa 863f 0287 823f 15e3 853f
00000070: ad78 8c3f 417d 743f 220e 833f 6bd1 793f
00000080: 5e67 823f 8a1d 833f b8a1 8f3f 57aa 6b3f
00000090: 67ef 8d3f 9860 783f 829a 7f3f 62e6 823f
000000a0: 2e15 6e3f 7bca 6e3f 49ed 8c3f 8e1d 823f
000000b0: 8f6d 913f 42e8 8f3f a9a1 813f 8637 803f
000000c0: c93e 8b3f 48da 843f 89c9 6f3f f341 7b3f
000000d0: 7118 8c3f 0762 903f 6641 843f eff6 8c3f
000000e0: 8f4b 893f fe2d 843f 3bb8 783f abb4 803f
000000f0: b158 843f f176 883f 6711 843f 7ba0 843f
00000100: 3cf4 833f 4141 9b3f e459 813f 45d3 853f
00000110: 1ba6 703f f1dd 8b3f 0d9e 893f ce25 823f
00000120: 7470 803f 8422 813f 94b7 883f f8a8 863f
00000130: 5241 7e3f 3504 7e3f e414 6b3f 445f 883f
00000140: d2e9 803f 041d 813f 6884 8c3f ced7 833f
00000150: 1b63 873f 81f6 843f f19f 813f 55bc 803f
00000160: 78e3 8d3f 1b3c 913f 4249 833f 6b6e 913f
00000170: 72ac 8c3f b23d 7d3f 0ea5 843f 9ac1 7f3f
00000180: f977 813f e52e 7e3f a511 763f 4fd5 823f
00000190: bcd9 923f a962 833f 1509 933f d9f0 893f
000001a0: 99d1 8e3f 8f6c 7e3f b8d5 893f cb09 8b3f
000001b0: 6ca3 983f a546 883f d20b 7a3f cc66 723f
000001c0: 082d 843f a744 8b3f 479e 873f 3706 843f
000001d0: 08a6 893f 0d80 883f 3a4d 7d3f d285 883f
000001e0: aef2 783f e7ae 813f ac7f 803f af4e 903f
000001f0: b4d1 803f dce5 7f3f 420c 773f 5a3f 813f
00000200: b893 963f 5d81 733f 9aab 803f 38f5 7e3f
00000210: a64e 963f fea4 863f 5be1 7e3f 1fd6 823f
00000220: 481d 913f 488f 933f eb6c 8e3f e993 943f
00000230: 8610 993f 3fb9 8a3f 13ee 8d3f e62a 813f
00000240: 6ac3 8d3f e8c3 853f 642d 893f 6a19 8b3f
00000250: b8f3 7c3f 4952 893f 9514 9a3f 2c9c 7a3f
00000260: 128d 823f 0c0b 803f b9d2 8c3f eb23 893f
00000270: 579e 893f 14b7 813f 8262 8d3f 1888 843f
00000280: 6a01 863f d856 943f 588e 813f 9447 853f
00000290: 71f1 883f fb52 753f 901b 8a3f cea8 883f
000002a0: 5582 8d3f e9f8 893f 351c 7f3f fa82 753f
000002b0: b677 893f db12 893f e037 873f d8b7 893f
000002c0: dbb4 833f 7baf 883f 4ae0 833f b6cd 873f
000002d0: b505 773f ce23 813f f150 6f3f d694 923f
000002e0: a4ff 883f 83e7 7c3f abca 863f 75f0 813f
000002f0: 16d3 973f 75f3 8c3f 9e25 893f 0b4e 8b3f
00000300: 0151 8f3f ef78 823f ee10 8b3f 8d6c 7c3f
00000310: 2b12 763f 758d 823f 8c1e 843f 48f0 8a3f
00000320: adc3 8a3f 5cea 7e3f 3f2b 853f 37c7 843f
00000330: 3679 833f e968 863f 76d7 813f 3089 883f
00000340: b6a8 793f 637d 823f 8d7c 893f a9cb 7f3f
00000350: 3370 673f d3c3 843f 7ba3 843f 830d 853f
00000360: dd74 8d3f 23a2 843f a6a0 813f 177d 9f3f
00000370: 4311 6e3f 33a6 883f bd76 7c3f f16f 8c3f
00000380: e835 753f 0d54 9e3f 281c 733f 610e 773f
00000390: f0c3 783f bc7b 8b3f f537 763f d6d3 923f
000003a0: 46d2 863f edf7 803f 66e5 823f 1a50 8a3f
000003b0: 28e1 853f ce6e 9e3f a328 963f 9577 8b3f
000003c0: 1c8e 943f 9753 7b3f fc70 813f 2a93 913f
000003d0: 2f4c 8c3f 401c 803f 4e91 8f3f dbeb 713f
000003e0: 99d0 8f3f be51 8b3f 05d9 803f a8c8 873f
000003f0: 3391 7e3f 4bb1 803f 43f0 773f 3960 873f
1.0014223 0.98942906 1.0629867 1.1225537 1.0953981 1.0415255 1.0380405 1.0159231
1.0915928 1.0554624 1.1212277 0.97706264 1.0794498 1.0347844 1.0376719 1.0814961
0.98413706 1.1225408 0.9745997 1.1080092 0.98130506 0.9738 1.0327191 1.009564
1.0612582 1.054508 1.0197451 1.0459925 1.0974327 0.9550362 1.0238688 0.9758517
1.0187795 1.024339 1.1221228 0.9205679 1.1088685 0.9702239 0.99845135 1.0226557
0.9300107 0.9327771 1.1009914 1.0165269 1.136156 1.1242754 1.012746 1.0016944
1.0878536 1.0379114 0.93666893 0.98147506 1.0944959 1.1279916 1.0332458 1.1012858
1.0726184 1.0326536 0.97156113 1.0055135 1.0339566 1.0661298 1.0317811 1.0361475
1.030891 1.2129289 1.0105557 1.0455099 0.94003457 1.0927106 1.0751358 1.0167787
1.0034318 1.0088658 1.0681024 1.0520315 0.9931842 0.9922517 0.9182875 1.0654073
1.0071356 1.008698 1.0977907 1.0300233 1.057712 1.0387727 1.0126935 1.0057474
1.1085043 1.1346468 1.0256732 1.1361822 1.0990126 0.98922265 1.0362871 0.9990479
1.0114738 0.99290305 0.96120673 1.0221347 1.1472697 1.0264484 1.1487147 1.0776626
1.1157714 0.993844 1.0768347 1.0862364 1.1924872 1.0646559 0.97674286 0.94688106
1.0326242 1.0880326 1.0595177 1.0314397 1.0753794 1.0664078 0.98945963 1.0665839
0.972453 1.0131501 1.0038962 1.1274012 1.0063996 0.9996011 0.9650308 1.0097458
1.176383 0.9511927 1.0052369 0.99592924 1.1742752 1.0519102 0.99562615 1.0221595
1.1337061 1.1528101 1.1126989 1.1607639 1.1958168 1.0837783 1.108828 1.0091217
1.1075261 1.0450411 1.0716977 1.0867131 0.98809385 1.0728236 1.2037531 0.9789455
1.0199301 1.0003371 1.1001807 1.0714086 1.0751446 1.0133996 1.1045687 1.0354033
1.0469182 1.1589003 1.0121565 1.0412469 1.0698682 0.95829743 1.0789661 1.0676515
1.1055399 1.0779086 0.99652416 0.9590298 1.0739658 1.0708879 1.0563927 1.075923
1.0289568 1.0678552 1.0302823 1.0609653 0.96493083 1.0089052 0.9348288 1.1451671
1.0703015 0.9879076 1.0530599 1.0151507 1.1861293 1.1011797 1.0714605 1.0883192
1.1196595 1.0193156 1.0864542 0.98603135 0.9612147 1.0199419 1.0321822 1.0854578
1.0840966 0.99576354 1.0403823 1.0373296 1.0271366 1.0500766 1.0143878 1.0666866
0.9752306 1.0194515 1.0741135 0.99920136 0.9040558 1.0372261 1.036239 1.0394748
1.1051289 1.036198 1.0127151 1.2460049 0.9299509 1.067572 0.9861868 1.0971662
0.9578538 1.23694 0.9496484 0.96506315 0.97173977 1.0897136 0.96179134 1.1470897
1.053292 1.0075661 1.0226257 1.0805695 1.0459337 1.2377565 1.1731151 1.0895869
1.1605868 0.9817442 1.0112605 1.1373036 1.0960749 1.0008621 1.1216218 0.9450051
1.1235534 1.0884321 1.0066229 1.060811 0.99440306 1.0054106 0.96850985 1.057624

blocks.0.1.bias f4 [352]
00000000: 8499 3abe 085b 74be 0cd9 a8be fa6f f5bd
00000010: d75e 80be 65c1 67be e873 93be 3263 5bbe
00000020: e8e3 a9be b568 9cbe ce99 97be 8be0 5fbe
00000030: d748 bdbd 0dce 56be 0c5c 68be d439 18be
00000040: 6dac 4cbe 9fb4 71be 4069 07be 2d2c 7bbe
00000050: f30f b9be e3f1 8fbe 28ef 98be e757 82be
00000060: 9ae0 89be 47fd c8be 06f2 73be 44ed ebbd
00000070: 656f 97be 04e4 6bbe 039e 17be ce36 94be
00000080: aa62 8cbe 481e 9abe 8d48 36be a166 74be
00000090: 6b34 80be 394f bebe 7ecd 78be 9db4 10be
000000a0: 2aeb 40be 949c b7be dc9d 86be aa7a 46be
000000b0: 6e28 5dbe 715b 67be eb9e 83be 2996 91be
000000c0: 350a 6dbe 1ae5 a0be d5f9 28be 23a2 71be
000000d0: d3b3 53be bf53 93bd 8d60 12be acf6 aabe
000000e0: 2cb8 fcbd cf8f 1cbe 3cbd 93be 2cbe 75be
000000f0: b2fb 15be 78be b1be 4b22 bebe 9949 7dbe
00000100: 8a7b edbd 8fcf 76be 94f5 57be 3f94 05be
00000110: 0418 99be e3f7 16be 0a59 44be 2fd2 3ebe
00000120: 1c2f 07be d2e4 b3be 1abd 99be 4897 63be
00000130: aa15 7cbe ea12 6ebe a055 6fbe 5023 70be
00000140: e304 b9bd f9e9 4ebe f7ca 59be e421 f0bd
00000150: 1ad1 08be d1c9 58be 980f 75be b4c2 b6be
00000160: 1bd3 b1bc 85ff 95be 7abe 3cbe 377d c0be
00000170: 5672 18be ea31 a7be eb12 7cbe 27bd eebd
00000180: e6c5 91be 4934 adbe 5f01 58be 173c 35be
00000190: 11a5 aabe c1fd 96be e51b 2dbe 9723 2ebe
000001a0: d749 39be 3ac3 5dbe 047d 9ebe c7be 4ebe
000001b0: f1ae 79be 7907 ffbd 72b3 21be 0335 cfbe
000001c0: f775 96be 804a 5cbe de13 7cbe 99bc 98be
000001d0: d658 2abe 747b 7abe 2794 3abe 215e 66be
000001e0: 609b 2ebe 6bab 66be 653d 94bd edeb 8dbe
000001f0: 6dab b1be 1576 36be b79a 66be ddbc 95be
00000200: 3ae6 94be 6cda 7fbe 9f4d 91be 8fa5 8bbe
00000210: fa6d 84be 8075 75be eab6 0bbe 8d83 61be
00000220: 3ee0 83be 19ab 3fbd d416 69be 69f3 5bbe
00000230: b0f5 6abe c0ed c5bd e4c4 35be 22ac a2be
00000240: 5ee1 80be ba51 a2be 0134 54be 7a73 91be
00000250: b07e 78be 0e85 13be cebb 2bbe 4160 8dbe
00000260: 803f 81be 5aaf 77be 673f 86be 34b5 65be
00000270: 7f9e 41be 8b67 43be 25ed 5ebe c0e7 5cbe
00000280: 7094 6cbe 12cc 86be 3144 1ebe 4ada 77be
00000290: 4483 72be 4dc6 61be b6b6 6fbe 1a12 0dbe
000002a0: 4253 05be 68cb 3abe 301b 40be 49c8 63be
000002b0: 9cba 7abe dfe5 4bbe 62c5 7bbe 44c4 85be
000002c0: 0396 6fbe 31d3 f3bd 03ac 1abe a4d4 1ebe
000002d0: d830 3ebe e9d2 48be 096b 72be b55b 24be
000002e0: d70d 9abe 979c 92be 7b6a 8cbe 8b46 3abe
000002f0: ecd2 4abe 6900 14be b290 8fbe f288 aabe
00000300: c114 93be 135a 82be 7f34 90be 0872 44be
00000310: 1d5c 3dbe f45d 97be 327c 6ebe a625 23be
00000320: 0aa4 8ebe 2a67 11be 3efc 46be e9be 9fbe
00000330: 7cad 99bd 3b9d 03be dbae 72be 0ac5 48be
00000340: e097 5dbe 3505 8abe 3fd3 79be 2af5 87be
00000350: 3124 8ebe b95d 52be 9df5 e6bd e634 8bbe
00000360: b146 2fbe ab95 0dbe 7554 7ebe 96db 6bbe
00000370: ead9 17be 1235 22be 550c dfbd 1fe1 a2bd
00000380: b601 5dbe 7fe9 72be 4903 82be 4ecb 8dbe
00000390: e3f7 7ebe c530 69be 7fdd 6cbe a67d 90be
000003a0: 2ef8 a8be 28fd 5bbe 892d 67be 6a27 9cbe
000003b0: b725 96be a8e0 1abe 6e55 38be b5c6 6fbe
000003c0: 3635 30be ed36 87be 71b8 6ebe 2452 86be
000003d0: e7eb 44be 78cd b0bc 0e61 6abe 29b5 59be
000003e0: 49c8 3cbe bee6 72be 43d3 a2be 3f2d cbbe
000003f0: 8788 8bbe 1b1e 9fbe ed27 49be 36eb 7bbe
-0.18222624 -0.2386285 -0.32978094 -0.119842485 -0.25072357 -0.22632368 -0.28799367 -0.21424559
-0.3318169 -0.30548635 -0.2960953 -0.21863 -0.09242409 -0.2097704 -0.22691363 -0.1486581
-0.1998765 -0.23604058 -0.13223743 -0.2452857 -0.3614498 -0.28114232 -0.29869962 -0.2545769
-0.2692917 -0.39255735 -0.23822793 -0.11519864 -0.29577175 -0.230362 -0.1480637 -0.28948063
-0.27419025 -0.30101228 -0.17801113 -0.23867275 -0.25039992 -0.37169817 -0.24297139 -0.14131398
-0.18839708 -0.35861647 -0.26292312 -0.1938273 -0.21597454 -0.22593476 -0.25707182 -0.28434876
-0.23148425 -0.3142479 -0.16501553 -0.23597006 -0.20674066 -0.07193708 -0.14294644 -0.3339132
-0.123398155 -0.15289234 -0.28855312 -0.23998326 -0.14646795 -0.3471563 -0.37135538 -0.24735107
-0.11595829 -0.24102615 -0.21089774 -0.13044833 -0.29901135 -0.14742999 -0.1917459 -0.18634866
-0.13201565 -0.35135514 -0.30027086 -0.22225678 -0.24617639 -0.23249403 -0.23372507 -0.2345097
-0.09034135 -0.20206441 -0.21268831 -0.11725214 -0.13361016 -0.21170737 -0.2393173 -0.35695422
-0.021707108 -0.29296508 -0.18432036 -0.3759553 -0.14887366 -0.3265527 -0.24616592 -0.11657172
-0.28471297 -0.33828953 -0.21094273 -0.17698704 -0.3332906 -0.29490474 -0.16905172 -0.17005764
-0.18094574 -0.21656504 -0.30954754 -0.20189963 -0.24383141 -0.12452597 -0.15791109 -0.40470132
-0.29386875 -0.21512794 -0.24616954 -0.2983139 -0.1663545 -0.24461156 -0.18220578 -0.22496845
-0.17051458 -0.22526328 -0.072382726 -0.2771906 -0.347011 -0.17818482 -0.22519957 -0.29245654
-0.290819 -0.24985665 -0.28379533 -0.2727475 -0.25865155 -0.23970604 -0.13643995 -0.22022839
-0.2575702 -0.04679403 -0.22762614 -0.21479572 -0.22945285 -0.09664488 -0.17750889 -0.31771952
-0.25171942 -0.31702977 -0.20722963 -0.28408414 -0.24267077 -0.14406225 -0.1677086 -0.27612498
-0.2524376 -0.24187985 -0.26220247 -0.22432405 -0.18908118 -0.19082467 -0.21770151 -0.2157278
-0.231035 -0.26327568 -0.154557 -0.24204364 -0.23682886 -0.22048302 -0.23409542 -0.13776436
-0.13020042 -0.18241656 -0.18760371 -0.22244371 -0.24485248 -0.19911908 -0.24587014 -0.261263
-0.23397069 -0.11905516 -0.1510468 -0.15510803 -0.1857332 -0.19611706 -0.23673643 -0.16050608
-0.30088684 -0.28635094 -0.27424988 -0.18190973 -0.19807023 -0.14453281 -0.2804008 -0.33307606
-0.2872677 -0.25459346 -0.2816505 -0.19184124 -0.1849217 -0.29563868 -0.23289564 -0.1593233
-0.27859527 -0.1419951 -0.1943216 -0.3120034 -0.07503793 -0.12852947 -0.23699515 -0.19606414
-0.21639967 -0.26957098 -0.2439699 -0.26554233 -0.27761987 -0.20543565 -0.11277316 -0.27188796
-0.1711681 -0.13826625 -0.24836905 -0.23032984 -0.14829221 -0.15840557 -0.10891024 -0.07953095
-0.21582684 -0.23721884 -0.2539313 -0.27694172 -0.24899249 -0.2277251 -0.23131369 -0.28220862
-0.33001846 -0.2148329 -0.22575964 -0.3049882 -0.2932565 -0.15124762 -0.18001339 -0.23415644
-0.17207798 -0.26409093 -0.23312546 -0.26234543 -0.19230615 -0.02158235 -0.22888586 -0.21260513
-0.18435778 -0.23720834 -0.31801805 -0.39682958 -0.272526 -0.31077656 -0.19644137 -0.24601445

blocks.0.1.running_mean f4 [352]
00000000: d0ce 28be 0a31 f3bd 91dd 3a3d cc60 05bd
00000010: 4c46 ebbc cdac 273e dcc8 3f3d 5b72 76bc
00000020: 30de 0a3d 631e f1bd 60da 383c 9981 15be
00000030: 5767 08be 120d 1a3e b285 d1bc be33 573d
00000040: 68fa 2bbe f2e0 db3d 6d20 c73c f00d 153e
00000050: b31a 2dbd 5a0a a0bb 8191 1d3d 1fb4 0bbe
00000060: 0503 40bc e3d0 1dbd 9b27 21be 1855 efbc
00000070: d56e dabd 5c76 febd a6b1 f53d e432 203e
00000080: 4f26 94bd 55ac 91bd 2c12 01be b46d 3dbd
00000090: c0a8 c63d 6f0d ec3d 27fa a8bd 93c3 d23c
000000a0: e5c9 debc ba01 cdbd 2a2f 943d 695e 15be
000000b0: aab7 d63d 5ea2 f6bb 1860 c0bc b4a4 15be
000000c0: 0da4 0dbd 114e 4fbc 9498 a23c ec54 793d
000000d0: 33c5 823d 7c6d f2bd 7968 873d dabd 1bbe
000000e0: 1e3c 6d3d dd61 08be 417a 43bc 850f f4bd
000000f0: 6dfe 0a3b f983 9fbd dc2e 83bd ac73 053e
00000100: 81ab e6bd 3b90 1a3e 539e 1b3c dcbc 203e
00000110: 6dbd c6bd 51ad d8bd d48d 63bc 1196 523d
00000120: b49f 90bd b73d 25bd 9e60 1bbe 247d c53b
00000130: c5ad 1f3e 1442 d9bd 8ddf 163b fef1 0fbe
00000140: 6b4a 19be c25c f33d bc54 073e fb96 88bd
00000150: 7a6c 05be f78e 4b3d 7856 de3d 74ec 953d
00000160: 6436 023e 67b5 84bb b340 b6bd aca9 c63b
00000170: 0acc cd3c bae0 283d 3940 d23d 15d7 d33d
00000180: 0524 c5bd 1bde 7ebd c68e 24bd e8ce 1bbe
00000190: a100 8fbd ae2e fe3d f599 8ebd 2de3 fb3d
000001a0: 1231 1c3e 3b5a 21be 30e8 953d 94d0 9b3d
000001b0: 6777 943d ff77 febc bee9 103e 3ba8 933c
000001c0: 26d9 b6bc 37a0 123e fe07 4b3c 8a24 80bd
000001d0: bf06 6b3c 9ced dc3d 21c6 05be cbf6 ae3b
000001e0: 79e4 1b3c e52b d1bd f58a e13c ca52 ebbd
000001f0: c9db 8f3d e230 063e eb4c b93c d52d dd3d
00000200: 296e 25bd cf2a f13c a684 653d 0ac5 c33d
00000210: 4b23 e7bd f056 063e d827 873d 081c cfbb
00000220: 27b4 713d 4144 293d 1598 a5bd 555e ee3c
00000230: 95d4 f9bd 9960 20be 9cb1 ce3c 9bfb d7bc
00000240: 47a6 3a3d d099 b53d 1c76 ec3d 77c7 81bd
00000250: af28 323d 34cf 3fbc dbd6 27bc 9082 8b3c
00000260: 4461 44bd 6788 f03b a4ff c33d 97d5 8a3d
00000270: 5121 5fbd 0461 67bc 56b0 d5bd 16a3 c4bd
00000280: 596c 39bd 84e4 6d3d 4b76 9bbc 8e64 2f3d
00000290: be51 11bd 1bb5 ed3d 8680 903d 35a4 b93c
000002a0: 338c 17be cdbe b53d 7adc 97bc 12e4 5c3d
000002b0: a0fe f2bd 5248 af3d 89f6 d23d c1bd 023e
000002c0: d6da 8c3c ed5b bcbd 40c7 0e3d ad98 f43d
000002d0: 31fb 913d fd4f 9d3d 7e83 bbbd 0935 01be
000002e0: 87eb f23c 1635 c63d 9df6 143e 8de3 d6bb
000002f0: e2e1 0ebe c1bc 93bd 64a0 16bd 7a4e adbd
00000300: e711 fabd 91c3 033c 8943 2a3d 7682 f8bd
00000310: 80fa 093e 1832 12be 5f21 a4bd 5cc4 763d
00000320: 391f b63c acbd 01bb 7f98 04bc 685a 183d
00000330: 49a9 9f3d 3952 b0bb 6e57 8fbd 03a2 e53d
00000340: 9697 12be cca3 80bd 1629 86bc 994e 2ebe
00000350: 8167 d1bd 2eee cb3d 483f 9d3d b147 1e3e
00000360: f50a d43c f454 03be f8fa ea3c 293a aabd
00000370: 05c6 d83d 89a2 d9bd 2c70 043d df21 123e
00000380: c1a9 ef3a dc5d 35be 5e3f d9bd 55e8 273d
00000390: a502 253e f7fb f4bd 6dce f0bd 8b5c c83c
000003a0: ccd0 e2bd dd5f b93d 7bed bebd cf6c 05be
000003b0: e883 a5bd f62a b8bd 5bb7 15be 9d8d 9ebd
000003c0: 85c6 82bc 5238 543d dfc8 ac3d 83e3 9fbc
000003d0: f852 a0bc efeb 1b3e f65f ca3d e83d 203e
000003e0: c680 9a3d 8c82 1ebd 354d 033e 2658 443d
000003f0: 920b 13be 4ac1 bebd 97e3 56bc dc99 fcbd
-0.16485143 -0.11874588 0.04562146 -0.032563016 -0.028720044 0.16374512 0.046822414 -0.015041913
0.0339033 -0.11773374 0.011282533 -0.14600219 -0.13320671 0.15044048 -0.025576446 0.05253958
-0.16794741 0.10736264 0.024307454 0.14556098 -0.04226179 -0.0048840465 0.03846884 -0.1364293
-0.01171947 -0.038529288 -0.15737765 -0.02921538 -0.10665671 -0.12424919 0.119967744 0.15644413
-0.07233869 -0.07112948 -0.12604588 -0.0462472 0.09700155 0.11526 -0.08250838 0.025728023
-0.02719588 -0.10010095 0.07235558 -0.14586796 0.1048425 -0.00752668 -0.023483321 -0.1461361
-0.03458028 -0.01265289 0.019848146 0.060872003 0.06385269 -0.11837289 0.066117235 -0.15209141
0.05791866 -0.13318582 -0.011931003 -0.119170226 0.0021208778 -0.07788844 -0.06405422 0.13032407
-0.112631805 0.15094082 0.009498197 0.15697044 -0.09704099 -0.105799325 -0.013888795 0.051412646
-0.07061711 -0.04034206 -0.15173575 0.006026881 0.15593632 -0.106083065 0.002302143 -0.14057156
-0.14969794 0.118829265 0.13215917 -0.06669422 -0.13029662 0.04969689 0.10856336 0.073204905
0.12716061 -0.004049945 -0.08899059 0.006062707 0.025121707 0.04122994 0.10266156 0.10343758
-0.09626011 -0.062223535 -0.04017522 -0.15215647 -0.06982542 0.12411247 -0.06962959 0.1229919
0.15253094 -0.15757076 0.07319677 0.076081425 0.07249337 -0.031063078 0.14151666 0.018024554
-0.022320341 0.1431893 0.012392042 -0.06256969 0.01434487 0.10787508 -0.13063861 0.0053394786
0.009514921 -0.1021345 0.02753208 -0.114904 0.070243426 0.13104585 0.022619685 0.107997574
-0.04038826 0.029439358 0.056034707 0.095590666 -0.112860285 0.13119102 0.065993965 -0.0063204803
0.059009697 0.041324858 -0.08085648 0.029097715 -0.1219875 -0.15661849 0.025231175 -0.026365092
0.04556873 0.08867228 0.11545965 -0.06336873 0.04349583 -0.011707116 -0.010244097 0.01703003
-0.047944322 0.007340479 0.09570244 0.0677902 -0.054475132 -0.014122251 -0.10434024 -0.09601419
-0.045269344 0.058079258 -0.018977305 0.042820506 -0.035478346 0.11606809 0.07055764 0.022661308
-0.14799576 0.08874283 -0.018537749 0.053928442 -0.11864972 0.08558716 0.10300929 0.12767698
0.017194193 -0.09197221 0.03485799 0.11943183 0.07127989 0.07681272 -0.091559395 -0.12617888
0.029653324 0.09678094 0.145472 -0.006557888 -0.13953355 -0.07213736 -0.036774054 -0.08462234
-0.12210446 0.008042232 0.041568313 -0.121342584 0.13474464 -0.14276922 -0.080141775 0.060245857
0.022231685 -0.001979689 -0.0080929985 0.037195593 0.077959605 -0.0053808955 -0.06999098 0.11212542
-0.14315638 -0.06281242 -0.016377013 -0.1702217 -0.1022482 0.099575385 0.076780856 0.15457036
0.025884131 -0.12825376 0.028684124 -0.083118744 0.10584644 -0.10626704 0.032333538 0.14270733
0.0018284844 -0.17711586 -0.106077895 0.040993053 0.1611429 -0.11962121 -0.117581226 0.02445819
-0.11074981 0.090514876 -0.093226396 -0.13029788 -0.080818 -0.08992569 -0.14620726 -0.07741854
-0.015963802 0.051811524 0.084367506 -0.019517666 -0.019570813 0.1522672 0.09881584 0.15648615
0.07544093 -0.038698718 0.12822421 0.047935627 -0.14359882 -0.09314211 -0.013115785 -0.12334034

blocks.0.1.running_var f4 [352]
00000000: 4d0c 093f 9fde 193f 174d db3e 0371 063f
00000010: 1258 2b3f 6603 e63e 8401 133f 93e5 f43e
00000020: 3929 d73e 9207 003f c96d 293f 3dab 0d3f
00000030: e827 e23e ca3e 0f3f 693b c03e 3e0a ef3e
00000040: 3f41 5b3f 110f 2b3f 13f3 f03e e29f f33e
00000050: 5c5c 063f 713b f03e 3fbe e73e c779 f43e
00000060: cb3c 0c3f 6e3f f03e fcf3 113f bcdf 163f
00000070: 46f2 2a3f ee3f 363f fd24 ae3e 4a29 ef3e
00000080: 2930 c73e 1a23 183f c6e5 203f 84ec 2a3f
00000090: 831f d63e eb47 383f 98fa 1b3f 0ad6 e93e
000000a0: ee17 113f 8736 be3e 1f2a db3e d75a 1d3f
000000b0: 039f b23e be06 093f b326 de3e 9a16 083f
000000c0: a11d 483f 49eb 163f 467e 023f a75d 003f
000000d0: 3ea3 1d3f b08f 043f 6922 f53e 9a9d e53e
000000e0: 69c2 f13e 6563 0e3f 2567 f83e 25cd 193f
000000f0: 11df f23e e14f f23e dde4 bc3e 99d1 6d3f
00000100: c748 013f 22bf 0b3f 751d b03e 472d 1c3f
00000110: 9a9b 143f 5076 333f 749c d83e 3669 d83e
00000120: a9da 233f 4e71 f23e c039 083f 7702 0c3f
00000130: d773 e03e f983 303f e40f db3e a3c1 0c3f
00000140: 2b44 dc3e 834a 0c3f f939 cb3e 7b47 083f
00000150: 3dbe e33e 7564 fe3e 6a29 e83e da2b 003f
00000160: 0e9e df3e fb18 133f f07b cf3e 037d 263f
00000170: c911 133f e925 e83e deb2 f33e 37fa 063f
00000180: 8360 bc3e 892f e83e 9215 303f 627a c53e
00000190: 7d20 0e3f 2108 0f3f 4c89 0b3f c3d9 ea3e
000001a0: 8a6a 063f be64 003f 6fec f23e caa7 3a3f
000001b0: 5d68 ed3e 40c4 153f ae4e 0e3f fed8 083f
000001c0: cf82 313f d0fe 1c3f 7d28 0e3f f1cd 033f
000001d0: 9393 df3e 2840 dc3e 020c f53e 8a24 1c3f
000001e0: 13fd bb3e bf5f 2d3f 7af2 f43e 5705 093f
000001f0: ac8b ca3e 99f3 023f f795 0c3f 9061 f03e
00000200: ff03 1a3f e978 bc3e 459a 013f 1927 0f3f
00000210: b7ed 093f e5c0 e03e bbb2 003f aea0 b43e
00000220: 989d 0e3f 91e3 de3e e5e6 053f a9fe 0a3f
00000230: 9e68 093f f9c8 0a3f 8484 043f 5abf 0c3f
00000240: e756 023f 5173 cd3e a01f 083f d06d cd3e
00000250: 1b99 f03e 1bd1 173f b142 103f 767a 2e3f
00000260: 5040 e83e 2455 fa3e 5b21 e63e 086d 033f
00000270: dbd3 073f c90f ec3e fc4f 013f fd78 f43e
00000280: 0023 d53e 1b62 ee3e bc10 e73e 465e e53e
00000290: 038e fd3e 5911 103f 8aec dd3e 6992 093f
000002a0: 7bfa bf3e d93e 1a3f fd2e ff3e 92c6 233f
000002b0: e012 e13e 913c da3e 1fe8 d43e b92c d43e
000002c0: 8727 df3e cd2a cb3e c2f5 003f 8538 1e3f
000002d0: ed77 103f 93d7 223f 9f84 253f 45ba c13e
000002e0: 63c6 0b3f fa28 103f 9bdc 083f 41bb 583f
000002f0: 810c f53e 4313 1f3f e1a2 f43e 0b58 fe3e
00000300: a7ce 143f 1d6d 003f c820 1f3f 4d40 f13e
00000310: 468e f13e 6a59 eb3e 6272 fd3e ca12 cf3e
00000320: 2acf f63e b3ff 183f aa00 fe3e 0d99 1a3f
00000330: dd75 2c3f aacd 013f b29c ec3e 3982 243f
00000340: 852e 013f 968f f63e 4a98 fc3e e0a0 ad3e
00000350: b683 143f ce6a 163f 692a d43e 21ed e73e
00000360: 0c3c 093f 9503 2d3f ffa1 173f 9475 e23e
00000370: 56de b33e c2f3 d33e c65f e03e 48bc c23e
00000380: cbf8 083f 57cc f03e 5771 063f d394 eb3e
00000390: 4e4e cb3e b93f f13e 8ffc 253f 9250 073f
000003a0: 97f8 e83e 511a 743f 3c7d 063f d28f 0a3f
000003b0: dd6f fa3e 67dc e83e 1fc9 053f 3b65 e83e
000003c0: cdcd eb3e 814c 053f beab 133f 4f29 e43e
000003d0: bafa f73e 788b bd3e bc7d fc3e 9f71 163f
000003e0: a71a 053f 9319 0d3f ce74 d13e 716b 163f
000003f0: ea5c 103f d367 b43e 8d1a 123f 7152 cc3e
0.53534395 0.6010532 0.42832252 0.5251619 0.6693126 0.44924468 0.5742419 0.478314
0.42023638 0.5001155 0.66183144 0.55339414 0.4417107 0.55955184 0.37545326 0.46687502
0.8564643 0.66819865 0.4706045 0.47582918 0.5248468 0.4692035 0.45262334 0.4774916
0.5478026 0.46923393 0.57012916 0.5893514 0.6677593 0.711913 0.34012595 0.4671119
0.3890393 0.5942856 0.62850606 0.66767144 0.41820917 0.7198474 0.6092925 0.4567111
0.5667714 0.37150976 0.42805573 0.61466736 0.3488694 0.5352591 0.433889 0.5315949
0.7817021 0.58952767 0.5097393 0.501429 0.6157721 0.5178175 0.47877815 0.44846803
0.47218636 0.55620414 0.48516193 0.6007865 0.4743581 0.47326568 0.3689336 0.92897946
0.50501674 0.5458852 0.34397474 0.6100659 0.5804993 0.70102406 0.42306864 0.4226777
0.64005524 0.4735207 0.5321312 0.5469126 0.4383838 0.68951374 0.4278556 0.54982966
0.43020758 0.54801196 0.39692667 0.5323407 0.44481078 0.49686018 0.45344096 0.5006691
0.43675274 0.5745999 0.40524244 0.650345 0.57449013 0.45341423 0.47597402 0.5272555
0.36792383 0.45348766 0.68782914 0.38569933 0.55518323 0.5587178 0.54506373 0.45869264
0.52506316 0.5015372 0.4744601 0.72912276 0.46368685 0.5850258 0.55588806 0.53456104
0.69340223 0.61326313 0.5553053 0.51486117 0.43667278 0.43017697 0.47860724 0.60993254
0.36716518 0.6772422 0.47841245 0.5352377 0.39559686 0.5115295 0.5491633 0.46949434
0.6016235 0.36810997 0.5062602 0.55919033 0.5387835 0.43897167 0.5027272 0.3527884
0.5570922 0.43532994 0.5230544 0.5429483 0.5367526 0.5421291 0.517647 0.5497948
0.5091385 0.40127042 0.53173256 0.40122843 0.4699181 0.59303445 0.56351763 0.6815561
0.45361567 0.48893082 0.44947323 0.51338243 0.5305764 0.46105793 0.5051267 0.47748557
0.41628265 0.46559224 0.45129955 0.44798487 0.4952241 0.5627647 0.43344527 0.5373903
0.3749579 0.6025215 0.49840537 0.6397487 0.43959713 0.42624334 0.41583344 0.4144037
0.43584844 0.39681092 0.50374997 0.6180499 0.5643299 0.6361019 0.6465549 0.37837425
0.5459959 0.56312525 0.5346162 0.84660727 0.47861102 0.62138766 0.47780517 0.49676546
0.58127826 0.50166494 0.62159395 0.4711937 0.4717886 0.45966655 0.4950133 0.40444022
0.4820493 0.59765166 0.49609882 0.60389787 0.67367345 0.50704443 0.462133 0.64261204
0.5046161 0.48156422 0.49334937 0.339118 0.58013475 0.5875672 0.41438606 0.45298102
0.5360725 0.6758359 0.5923156 0.4423033 0.35130566 0.4139691 0.4382307 0.38034272
0.5350463 0.470309 0.5251669 0.4601198 0.3970818 0.4711893 0.648385 0.52857316
0.4550216 0.95352656 0.5253484 0.541257 0.4891347 0.45480654 0.5226001 0.45389733
0.4605545 0.5206986 0.5768393 0.44562766 0.48433477 0.3702047 0.49314678 0.5876712
0.51993793 0.5511715 0.40909427 0.5875769 0.56391776 0.35235462 0.57071763 0.39906648

blocks.1.0.weight f4 [224, 352]
00000000: 20ef b83c 7cd5 933d ab75 74bd d6ef 223c
00000010: 74ba aabd c3ed abbc 526c 64bc 4337 c63d
00000020: 8dca bd3d 920c 3c3d d9c0 c03d 619f 23be
00000030: 3394 e5bd ab94 03bd fc8b 523d 7067 11bd
00000040: 78ac 59bd a17c 733c 5d17 9f3c b5bc 98bd
00000050: 34cf 153d 7778 cdbc 5ebf cc3d b18c 6abd
00000060: 7a5c a6bd a284 913d af96 7b3d 2dea a13d
00000070: fe4a 8dbd 3d43 ef3c 29a0 933c 7d26 81bd
00000080: 3653 e1bd ef11 433d e094 59be 159c 91bb
00000090: 0533 4f3d fa75 523c f96c 21be a539 d53d
000000a0: d6f3 5dbd 2fe5 6abc 4cf2 143e 0359 923d
000000b0: 3d73 69bc f6c6 84ba 9fd4 3cbe 28cd 53bc
000000c0: e873 a03d 918e 803d 42ce f6bc 20ab f5bc
000000d0: 5e6e e0bd 83df 0b3d 53e9 fd3c 34ba c5bd
000000e0: 2138 453b 8cad b8bd b83d 38bd 1339 3ebe
000000f0: f29c bbbd af14 1dbd ad75 f2bb 9000 e23c
00000100: b47d 1bbc 7164 a1bd bc5b 003d 6ff1 9e3d
00000110: ab89 46bb eaf3 dbbc adce 80bd aa18 acbc
00000120: a675 2cbd 8aa5 dcbc f1ea 07be 6192 6ebd
00000130: 92e5 c33d 8681 a13a 5794 b7bd 917e 363d
00000140: 91e2 8abd 3205 09bc a633 8a3d f6b0 963c
00000150: cda8 9f3d 3da9 eabd 9237 283d fa38 613b
00000160: 6f7e 07be ba3d d3bb a459 e6bc 3320 98bd
00000170: a4b8 d23c 0e12 86bd 1675 dbbd f117 c83c
00000180: ee82 30bc 275e 483c ed22 0ebe 6fcb 85bc
00000190: 60ec e43d b68a d23c 35d1 923d 3674 b33d
000001a0: 6a56 46be 8927 2bbd 022a a13d 09f2 5f3b
000001b0: ad84 a93c 5491 193c d88f 06bc 565d cb3c
000001c0: 39c4 083c ceee 20be c3f5 b0bc f81d a1be
000001d0: e300 20bd dbe1 dd3d fbdf 63bd e3d6 c3bd
000001e0: ddd7 bbbc df4c a1bd 2eab 21bd 3c9e adbd
000001f0: da60 cbbd 3b0b 8d3c a698 6abd 47e0 04bd
00000200: 49d0 6f3d 242f 5bbd c58e 2b3d 04cd 61bd
00000210: 71ab 143d 5110 2bbe 94db cebd b17f c63a
00000220: 9f84 c23d 6f79 02be 973c 9bbd e4b7 c8bd
00000230: 8060 0bbc 6835 91bd f99e 863d 419d 6f3d
00000240: 0a02 08be 9271 493d e084 aa3d 61f4 49bd
00000250: 9262 3ebd ec5a 443d 82a5 90ba 0cfe 783c
00000260: dea3 61bc 6317 e1bc b762 31be 2ace 0e3d
00000270: f1e1 9abd a671 8a3d 2a5a d83c f9a4 193d
00000280: 676b f03c bc49 6c3d 143e 843d ebeb 4abe
00000290: d09a 81bd 7fd4 b0bc a535 903c fb93 713d
000002a0: e800 183d 8e6d a23d 8011 a3bd bb32 463d
000002b0: bcdd 21be 4bc8 cd3b ad6b 5e3b 84b6 11be
000002c0: 5a19 343c 67fd fe3d 6139 e4bb ce09 a8bd
000002d0: cda0 803c 15ae bfbc 09eb b5bd 90c3 b43d
000002e0: a83d 7f3d abb5 17be 46d2 06bb 497b 9bbd
000002f0: aaba f03b fb70 123d fae0 993d 3735 7cbd
00000300: 39f0 92bd b9b1 ef3a 98be b8bd df4d e93c
00000310: df0d 1abe a9e7 e03d 8e3b 4cbd 197e b63d
00000320: 76a7 d23b d8fb 1f3d 93ac 47bd 0b13 59bd
00000330: bf01 e0bc 961b dbbd cc81 82bd 16ba e6bb
00000340: 66e4 8bbd 400a 8a3c 1e57 053d ba60 ad3b
00000350: 1a30 273b 628a c9bb 7882 4c3c d3d3 ce3b
00000360: f594 8e3c 6036 bd3d 8a9e 433d ce20 07bc
00000370: 7276 3fbd f7cd 023e 5b32 3abd a74d 4a3d
00000380: 59a4 b3bd bbf4 9abd cef8 e13c 21c4 37bc
00000390: 3a52 bcbd b004 bfbd b0f2 5bbd e859 843d
000003a0: 0ecb cd3d 9a14 80bc 3b7a 1c3c 23e5 d53c
000003b0: 2e73 973c 9e70 da3b f76e 85bd 7e0a 07be
000003c0: 6ffd 5abd fbb8 2f3c bf35 fabd 7c77 fbbd
000003d0: 1355 84bb 1fb6 043d a363 273d 4a85 073d
000003e0: e8c2 aa3d 65d0 fbbd 7e53 febd f437 b03d
000003f0: c8f8 5fbc ae4a f83b 5c7c 483c fba2 a3bd
0.022574961 0.07218453 -0.05968253 0.009944877 -0.08336344 -0.020987397 -0.013941841 0.09678509
0.09267149 0.045910425 0.09411783 -0.15978767 -0.112099074 -0.032124203 0.05140303 -0.035499036
-0.053142995 0.014861257 0.01942032 -0.07457868 0.036574557 -0.025081856 0.09997438 -0.05726308
-0.08123107 0.07105376 0.061423 0.079059936 -0.06899069 0.029206866 0.018020706 -0.06306169
-0.11002199 0.047624525 -0.21248198 -0.0044436553 0.050585765 0.012845511 -0.15764226 0.104113854
-0.05418762 -0.014336868 0.14545554 0.07145884 -0.014248666 -0.0010130096 -0.18440484 -0.012927331
0.07834607 0.062771924 -0.030127648 -0.029988825 -0.10958551 0.034148704 0.030995047 -0.09654656
0.003009327 -0.090174764 -0.044980735 -0.1857646 -0.09160794 -0.038349804 -0.007399282 0.027588159
-0.009490419 -0.07880486 0.031337485 0.077608936 -0.003029446 -0.026849706 -0.0628942 -0.021007854
-0.042104386 -0.026934404 -0.13273217 -0.058245067 0.095652714 0.0012321926 -0.089638405 0.044554297
-0.06781495 -0.008363055 0.067481324 0.018394928 0.07795868 -0.11458061 0.04106862 0.0034366236
-0.13231824 -0.0064465674 -0.028118916 -0.074280165 0.02572281 -0.065464124 -0.10715692 0.024425479
-0.010773404 0.012229479 -0.1388051 -0.016332356 0.111778975 0.025700908 0.07168809 0.087624
-0.19368902 -0.04178575 0.078693405 0.0034171364 0.020693148 0.009373028 -0.008213006 0.02482478
0.008347564 -0.15716097 -0.021601563 -0.31468177 -0.039063346 0.10834094 -0.055633526 -0.09562471
-0.02293008 -0.0787599 -0.03946989 -0.084774464 -0.09930582 0.01721727 -0.057274483 -0.03244045
0.058548246 -0.053511754 0.041884203 -0.05512716 0.03629631 -0.16705443 -0.10100475 0.0015144256
0.09497952 -0.12741636 -0.07579916 -0.09800699 -0.008506894 -0.070902646 0.065732904 0.05849958
-0.13282028 0.049180575 0.08326125 -0.049305324 -0.046480723 0.047938272 -0.0011035653 0.015197288
-0.013771979 -0.027476972 -0.17322813 0.034864582 -0.07562626 0.06759958 0.026410181 0.037510846
0.029348088 0.057687506 0.06457153 -0.19816558 -0.06328356 -0.021585701 0.017603705 0.058979016
0.03711024 0.07931052 -0.07962322 0.048388224 -0.15807241 0.0062799803 0.0033938691 -0.1422978
0.010992372 0.124506764 -0.006964848 -0.08204995 0.015701676 -0.023398438 -0.0888272 0.08826363
0.06231466 -0.14815395 -0.002057211 -0.07591874 0.007346471 0.035752278 0.07513614 -0.061574187
-0.07174725 0.0018287218 -0.09020728 0.028479515 -0.15044354 0.10981686 -0.049861483 0.0891077
0.0064286543 0.039058536 -0.048748564 -0.052996676 -0.027344583 -0.10698621 -0.06372413 -0.007041226
-0.06830673 0.01685059 0.032553785 0.0052910717 0.0025510848 -0.0061505297 0.012482278 0.0063118725
0.017405013 0.09238887 0.047758617 -0.008247567 -0.046743818 0.12773882 -0.04545818 0.04939046
-0.08771581 -0.0756621 0.02758446 -0.011216194 -0.09195371 -0.09327066 -0.05369824 0.06462461
0.10048495 -0.015634824 0.009550626 0.026110237 0.01848754 0.006666257 -0.065153055 -0.13187596
-0.05346435 0.010725255 -0.122172825 -0.12278649 -0.004038462 0.032400247 0.040866505 0.0330861
0.08337957 -0.122956075 -0.124182686 0.08604422 -0.013670154 0.007577262 0.012236681 -0.079900704

blocks.1.0.bias f4 [224]
00000000: 7290 203d 8ff5 25bc 28ab aabc 62de 933c
00000010: af87 bcbc 98a0 dcbc 84dc b33c b56c 56bc
00000020: edca e6bc 6f7d b1bb d392 623d 31e8 34bc
00000030: b45c 3a3d ddf0 2a3b 630c 76bc cffa 193d
00000040: 846d 4cbd 2fc1 dbbb a286 953c 9ce7 34bd
00000050: 60cb 1e3d 753f a0bc 60e2 483d a78b e93c
00000060: f922 15bd 620b 07bd 10f0 a73b 2def 493d
00000070: dfce b73a cbcf 32bd b447 103d b127 343d
00000080: 843a 3b3d 9f6b 3abd 6ea6 973c b8d9 00bc
00000090: ae6f 203b 7e78 2a3d 1b14 cb3c af9f cc3b
000000a0: 70ae f53c 9a20 d2bc a47e c83c f29f 8f3c
000000b0: fd3b ba3c f51f 503c 2a0a 34bd 1311 48bd
000000c0: 5609 0c3d c02a bd3a 5ae9 1a3c 16af 253c
000000d0: 255c 55bc 7981 0cbd dbf9 b23c 6821 873c
000000e0: db76 293d 321e 5bbb d62f 46bc 4209 36bd
000000f0: a3bc be3c 2811 19bd fe08 0f3d 1069 d23c
00000100: 8243 903b 196c f0bc 8343 e63c 35af 253d
00000110: 9510 1bbd d012 17bc fec9 99bc d40d 7d3c
00000120: 291f 043d 5f13 8d3c 295d d5bc fdba fcbc
00000130: 0e1d 8b3c b7ee 6fbc 46c7 fa3c eb5f e73b
00000140: b309 06bd c13b 39bd 37dc c83b 2a15 8639
00000150: fd54 95bc fc9a 173d 774a cf3b b1c0 093d
00000160: 0f53 383d 7808 803c f4d4 073d c93a ea3c
00000170: a218 a73c 610f 33bb 3dab 33bd 74da 48bd
00000180: d167 56bd 0801 6ebb dc42 b63c b8de 86bc
00000190: 6292 fc3c e5bf d6bc d6eb 9c3b 455d 733b
000001a0: 3874 56bb f87a 25bb 0a8b 01bd 7d9e da3b
000001b0: 5fc9 5cbc 50c2 6f3a 175b 533c daad 57bd
000001c0: 4643 143c 14b6 45bd 3963 16bd 25bb 16bd
000001d0: f569 d7bc 9190 46ba f492 473d d319 f5bc
000001e0: 429a c2bc 0401 cb3c 4709 ea3c 8ed0 4bbd
000001f0: de7a 38bd e645 2ebd ea8a 08bd d0cd 4a3c
00000200: 7913 4f3b 0d40 eebc fb5e 003c b93c 40bb
00000210: 7648 983c ce4e 473d 6f83 9fbc 5706 323d
00000220: 322b d9bc 2855 1e3d 640c 443d b934 d63c
00000230: bc5b 25bd 279f 0e3d 80d4 df3b cf68 123d
00000240: 27da d03c e1a4 15bb 30c2 553c 2d56 30bd
00000250: 14ae 523d d803 b3bb c291 d0bc a2a6 0dbd
00000260: c414 f7bc 6144 49bd 3068 3dbc 1642 b6bc
00000270: 19c5 f73c baa5 32bb a912 563d f7a9 4c3d
00000280: b12c 123c 5f1c ad3c b54e e9bc 3e8a 233d
00000290: ab23 ee3c 292e c13c 469e be3c 32e4 e53c
000002a0: f925 593d 3126 173d 8980 2ebd 5f30 253c
000002b0: 647e 1cbd 4744 c4bb df8c 413d c203 6ebb
000002c0: a31c 2b3d 711e 48bd 8958 eb3c 2069 583d
000002d0: 65eb 2a3d f4fc 19bd 2cae 5dbd 06a9 4ebd
000002e0: c3aa 263b 7c91 dd3c 84aa 6f3c 3fbc 0dbd
000002f0: 7303 5abc d871 3737 a365 323c 622b 3d3c
00000300: c7dd c0bc a0c6 d0bc e62e 90bb 2319 e2bc
00000310: bd5b 2e3d b86e 373c 1658 1f3d 1030 3b3d
00000320: 2781 f03c aca7 18bd 2493 06bd d259 053b
00000330: 3ab7 353d a4e6 413d 9845 20bd f9a1 083a
00000340: ac71 8fbc 7c80 233d a72c b93c 55da 9e3c
00000350: 0727 df3b 57b3 51bd ee57 40bd 480a 433d
00000360: bfdb 4abd c766 113d 0d47 c83c 3af1 b63a
00000370: 8af2 243d 1213 4cbd 6b97 583c dab2 febc
0.039200254 -0.0101293465 -0.020833567 0.018050376 -0.023013918 -0.026932046 0.021955736 -0.013087441
-0.028172934 -0.005416564 0.055315804 -0.011041687 0.045498565 0.0026083507 -0.015017602 0.037592705
-0.04990913 -0.006706379 0.018252674 -0.044166192 0.038768172 -0.019561509 0.049044013 0.028508974
-0.036410306 -0.03296984 0.005125053 0.04930036 0.0014023444 -0.043655198 0.03522463 0.043983165
0.0457101 -0.04551279 0.018511977 -0.007864408 0.0024480629 0.041618817 0.02478986 0.0062446217
0.029990405 -0.025650311 0.02447445 0.017532323 0.022733683 0.012702932 -0.043955006 -0.04884441
0.03418859 0.0014432296 0.009455049 0.0101125445 -0.013022457 -0.034303162 0.021847656 0.016495422
0.041373115 -0.0033434746 -0.012096366 -0.044442423 0.023283308 -0.037369877 0.034920685 0.025684863
0.004402579 -0.02934842 0.028108364 0.040450294 -0.03785761 -0.009220794 -0.018773075 0.015445191
0.03225628 0.01722115 -0.026045399 -0.030850882 0.016981628 -0.014644316 0.0306126 0.007060995
-0.032724094 -0.045223 0.0061297673 0.0002557424 -0.018229002 0.03701304 0.0063260156 0.03363103
0.045001086 0.015629038 0.033162072 0.028592484 0.020397488 -0.00273224 -0.043864477 -0.049036458
-0.0523451 -0.0036316533 0.022248678 -0.016463622 0.03083152 -0.02621455 0.004788856 0.003713445
-0.003272308 -0.0025250297 -0.03162674 0.0066717253 -0.013475745 0.0009146081 0.0129001355 -0.052656032
0.009049242 -0.048269346 -0.03671572 -0.03679957 -0.026295641 -0.00075746427 0.04872413 -0.02991954
-0.023755196 0.024780758 0.028568877 -0.04975944 -0.04503905 -0.04254713 -0.033335604 0.012378171
0.00315973 -0.029083276 0.007835145 -0.0029333069 0.01858924 0.04865914 -0.019471852 0.043463077
-0.026509855 0.03865543 0.04786338 0.026148187 -0.040370688 0.03481975 0.006830752 0.035744485
0.025494648 -0.0022833871 0.013046786 -0.043050934 0.051435545 -0.0054631047 -0.025460128 -0.03458274
-0.030161269 -0.049137477 -0.011560485 -0.02224831 0.03024535 -0.0027259425 0.05226389 0.04996678
0.008921788 0.021131692 -0.028479913 0.03992676 0.029069742 0.023581581 0.02326883 0.028062914
0.05301473 0.036901657 -0.04260305 0.010082333 -0.038206473 -0.0059895846 0.047253486 -0.0036318158
0.041775357 -0.048857156 0.02872874 0.05283463 0.041728396 -0.03759475 -0.05412118 -0.050454162
0.0025431372 0.027046911 0.014628056 -0.034603354 -0.013306486 1.0934156e-05 0.01088849 0.011545988
-0.023543252 -0.025485337 -0.004400122 -0.027599877 0.042567957 0.011195831 0.038902365 0.045700133
0.02935846 -0.03726928 -0.032855168 0.0020347727 0.04436419 0.047339097 -0.03912887 0.0005212124
-0.017510258 0.039917454 0.0226043 0.019391218 0.0068100723 -0.051196422 -0.046958856 0.047617227
-0.049525972 0.035498407 0.024447942 0.0013957389 0.040270366 -0.049822874 0.013219695 -0.031091142
